…
    (bbox_w3d): Conv2d(1024, 36, kernel_size=(1, 1), stride=(1, 1))
    (bbox_h3d): Conv2d(1024, 36, kernel_size=(1, 1), stride=(1, 1))
    (bbox_l3d): Conv2d(1024, 36, kernel_size=(1, 1), stride=(1, 1))
    (bbox_rY3d): Conv2d(1024, 36, kernel_size=(1, 1), stride=(1, 1))
    (softmax): Softmax(dim=1)
  )
)
[INFO]: 2024-04-14 11:01:47,122 ==========================================================================================
Layer (type:depth-idx)                   Output Shape              Param #
==========================================================================================
├─RPN: 1-1                               [-1, 126720, 4]           --
|    └─Sequential: 2-1                   [-1, 1024, 32, 110]       --
|    |    └─Conv2d: 3-1                  [-1, 64, 256, 880]        9,408
|    |    └─BatchNorm2d: 3-2             [-1, 64, 256, 880]        128
|    |    └─ReLU: 3-3                    [-1, 64, 256, 880]        --
|    |    └─MaxPool2d: 3-4               [-1, 64, 128, 440]        --
|    |    └─_DenseBlock: 3-5             [-1, 256, 128, 440]       335,040
|    |    └─_Transition: 3-6             [-1, 128, 64, 220]        33,280
|    |    └─_DenseBlock: 3-7             [-1, 512, 64, 220]        919,680
|    |    └─_Transition: 3-8             [-1, 256, 32, 110]        132,096
|    |    └─_DenseBlock: 3-9             [-1, 1024, 32, 110]       2,837,760
|    |    └─_Transition: 3-10            [-1, 512, 32, 110]        526,336
|    |    └─_DenseBlock: 3-11            [-1, 1024, 32, 110]       2,158,080
|    |    └─BatchNorm2d: 3-12            [-1, 1024, 32, 110]       2,048
|    └─Sequential: 2-2                   [-1, 1024, 32, 110]       --
|    |    └─DEConv: 3-13                 [-1, 1024, 32, 110]       34,608,128
|    |    └─ReLU: 3-14                   [-1, 1024, 32, 110]       --
|    └─Conv2d: 2-3                       [-1, 144, 32, 110]        147,600
|    └─Conv2d: 2-4                       [-1, 36, 32, 110]         36,900
|    └─Conv2d: 2-5                       [-1, 36, 32, 110]         36,900
|    └─Conv2d: 2-6                       [-1, 36, 32, 110]         36,900
|    └─Conv2d: 2-7                       [-1, 36, 32, 110]         36,900
|    └─Conv2d: 2-8                       [-1, 36, 32, 110]         36,900
|    └─Conv2d: 2-9                       [-1, 36, 32, 110]         36,900
|    └─Conv2d: 2-10                      [-1, 36, 32, 110]         36,900
|    └─Conv2d: 2-11                      [-1, 36, 32, 110]         36,900
|    └─Conv2d: 2-12                      [-1, 36, 32, 110]         36,900
|    └─Conv2d: 2-13                      [-1, 36, 32, 110]         36,900
|    └─Conv2d: 2-14                      [-1, 36, 32, 110]         36,900
|    └─Softmax: 2-15                     [-1, 4, 1152, 110]        --
==========================================================================================
Total params: 42,115,484
Trainable params: 42,115,484
Non-trainable params: 0
Total mult-adds (G): 9.73
==========================================================================================
Input size (MB): 10.31
Forward/backward pass size (MB): 550.75
Params size (MB): 160.66
Estimated Total Size (MB): 721.72
…
